v3_multi_nets/state_model.pth (torch, 3063 bytes, 5 tensors)

fc1.weight f4 [12, 6]
-0.027114743 0.37042978 -0.1750634 -0.023607535 -0.22053531 -0.5033886 0.008772394 0.61979216
0.3420566 0.0019299387 0.07215313 -0.3934629 -0.21114698 -0.17277028 -0.24217549 0.26198736
-0.60345775 -0.5960089 0.008889077 -0.05936619 -0.031120742 -0.100818165 0.32931677 0.07781826
-0.049235567 -0.41165534 -0.14120221 -0.043462116 -1.1116077 -1.1183523 0.017715853 -0.08519101
-0.11809706 -0.2829274 0.33263928 0.09445811 -0.12005596 -0.1169859 0.2366183 0.3575295
0.8154063 0.2248557 -0.24152705 0.2797214 -0.0066813612 0.3477318 -0.059415556 0.010458487
0.18576746 0.3173612 -0.22314192 -0.24309348 0.24564719 0.52274907 0.111259915 -0.32033095
-0.49779168 -0.14429751 -1.4735464 -1.5647136 0.011453111 -0.46329433 -0.39396667 -0.01998542
-0.467377 -0.51574594 0.001754547 -0.01727277 -0.27853712 -0.010727031 -1.5735524 -1.8007741
00000000: bd1f debc f9a8 bd3e d243 33be 9764 c1bc
00000010: 02d4 61be 13de 00bf 16ba 0f3c b3aa 1e3f
00000020: 0b22 af3e fff5 fc3a 05c5 933d f873 c9be
00000030: ea36 58be b1ea 30be dafc 77be 3523 863e
00000040: 357c 1abf 0a94 18bf 7ea3 113c f629 73bd
00000050: edf0 febc c179 cebd 359c a83e 2e5f 9f3d
00000060: 3cab 49bd 7dc4 d2be 5097 10be 5505 32bd
00000070: 2949 8ebf 2b26 8fbf d620 913c a078 aebd
00000080: dfdc f1bd dcdb 90be b24f aa3e 4173 c13d
00000090: e6df f5bd 4e96 efbd 114c 723e 1b0e b73e
000000a0: 78be 503f 9340 663e de52 77be a537 8f3e
000000b0: 52ef dabb e709 b23e ba5d 73bd 135a 2b3c
000000c0: d339 3e3e 2b7d a23e 517f 64be 7fed 78be
000000d0: f08a 7b3e e2d2 053f 3ddc e33d 6b02 a4be
000000e0: 8dde febe bac2 13be 2b9d bcbf 8948 c8bf
000000f0: d4a5 3b3c ea34 edbe 00b6 c9be 77b8 a3bc
00000100: 0a4c efbe ed07 04bf d4f8 e53a a07f 8dbc
00000110: 6b9c 8ebe 6ec0 2fbc 2a6a c9bf c47f e6bf

fc1.bias f4 [12]
-0.08663458 -0.0798863 0.33495617 0.43426478 -0.21109603 0.2303779 0.4113451 -0.14618818
-0.150672 -0.10330028 -0.6298806 0.16134903
00000000: 786d b1bd 6e9b a3bd 607f ab3e f457 de3e
00000010: 8f29 58be 2fe8 6b3e d39b d23e 5bb2 15be
00000020: c349 1abe 198f d3bd db3f 21bf ae38 253e

fc2.weight f4 [12, 12]
0.045015354 -0.039918445 0.2486876 -0.027748117 -0.24690467 -0.10446499 -0.26572284 0.0051528057
-0.16635938 0.023341002 0.057518937 0.08114147 0.1237076 0.015426098 -0.119453005 0.16350883
0.119457506 0.08074475 0.016981559 0.14947353 -0.037816763 0.24290866 0.0037049453 -0.19331221
-0.16799304 0.09300101 -0.011379216 0.34460244 -0.1333091 0.16403054 0.14387034 0.08334632
0.13721955 -0.21420738 0.055700038 -0.52144825 0.23493761 -0.048590243 -0.16734551 -0.17506872
-0.013284045 -0.084113464 -0.17349704 0.16240653 -0.08314427 0.082662016 -0.3856828 -0.12213117
-0.12617005 -0.21945404 -0.12351383 0.062035535 -0.20829178 0.14304458 0.047092095 0.053700533
-0.077205226 -0.2366858 0.2390268 -0.2992331 -0.22011594 0.07340302 -0.011897848 0.11117308
0.15212123 0.20843972 -0.03462981 -0.090853184 -0.25863406 0.11943375 -0.19337551 0.13905284
0.08210046 -0.0275054 0.094276614 0.13165505 -0.1569736 -0.24371412 -0.12499889 -0.13277972
-0.27666137 0.11552795 0.03234527 0.14584722 0.019990357 -0.13973281 0.11736448 -0.04650951
0.13687374 0.072573334 0.08248883 -0.040531788 0.07680669 0.056340616 0.19428983 -0.021320876
-0.06805275 0.07189642 -0.09493928 -0.016000045 -0.001041058 0.19736038 0.12447404 0.17245223
0.16639253 -0.115247354 -0.17482372 0.008360613 -0.30243304 -0.0809663 0.0770093 0.15700915
0.061351333 0.0075571146 -0.24275534 0.2560772 -0.10201967 0.15271804 0.20162702 0.10102044
-0.056661423 -0.035724547 0.2711655 0.044855166 -0.010487382 0.00014929927 0.040258117 -0.19820838
0.18063891 -0.022415305 0.045874476 -0.23048408 0.10002147 0.10520857 -0.012440708 0.12886158
0.0923834 0.06686277 0.21972878 -0.06405098 -0.039104473 0.20864898 0.074101254 -0.056257192
00000000: 0562 383d 8681 23bd f6a7 7e3e 0550 e3bc
00000010: 94d4 7cbe bef1 d5bd d30c 88be ded8 a83b
00000020: 1d5a 2abe a135 bf3c fa98 6b3d 802d a63d
00000030: 695a fd3d bfbd 7c3c c7a3 f4bd dc6e 273e
00000040: 23a6 f43d 815d a53d e91c 8b3c 970f 193e
00000050: c0e5 1abd 0cbd 783e abce 723b a3f3 45be
00000060: 5e06 2cbe 5077 be3d e46f 3abc bb6f b03e
00000070: 2e82 08be 9ff7 273e bf52 133e 7ab1 aa3d
00000080: 4883 0c3e 2e59 5bbe b925 643d a27d 05bf
00000090: 7c93 703e 9006 47bd 9f5c 2bbe 3745 33be
000000a0: 53a5 59bc ae43 acbd 35a9 31be e64d 263e
000000b0: 8b47 aabd b44a a93d 3778 c5be e81f fabd
000000c0: b932 01be 8fb8 60be d2f4 fcbd f918 7e3d
000000d0: 714a 55be 477a 123e a4e3 403d 17f5 5b3d
000000e0: c61d 9ebd c35d 72be 71c3 743e 1535 99be
000000f0: 1366 61be 5354 963d 31ef 42bc b6ae e33d
00000100: abc5 1b3e 3971 553e fdd7 0dbd 3c11 babd
00000110: af6b 84be af99 f43d 3b04 46be de63 0e3e
00000120: 4924 a83d 0153 e1bc 1914 c13d 95d0 063e
00000130: b0bd 20be 3290 79be 6bff ffbd 68f7 07be
00000140: 8fa6 8dbe eb99 ec3d 797c 043d f958 153e
00000150: d1c2 a33c 1e16 0fbe ca5c f03d c280 3ebd
00000160: a128 0c3e 54a1 943d e7ef a83d a904 26bd
00000170: d34c 9d3d 6bc5 663d eaf3 463e 1ea9 aebc
00000180: 3d5f 8bbd 6e3e 933d 866f c2bd 8712 83bc
00000190: 1c74 88ba d718 4a3e 3fec fe3d 5197 303e
000001a0: ce62 2a3e ce06 ecbd fd04 33be f4fa 083c
000001b0: 81d8 9abe a9d1 a5bd 0db7 9d3d 02c7 203e
000001c0: 894b 7b3d aca1 f73b db94 78be 8d1c 833e
000001d0: b0ef d0bd 1e62 1c3e 5077 4e3e cee3 ce3d
000001e0: cf15 68bd e753 12bd 34d6 8a3e 0dba 373d
000001f0: 45d3 2bbc 388d 1c39 b2e5 243d 23f7 4abe
00000200: 68f9 383e 4da0 b7bc e0e6 3b3d 0504 6cbe
00000210: 0ed8 cc3d 9777 d73d 1cd4 4bbc 4af4 033e
00000220: 8233 bd3d 59ef 883d 9500 613e 292d 83bd
00000230: 032c 20bd 14a8 553e 66c2 973d f16d 66bd

fc2.bias f4 [12]
0.016670821 -0.30241978 0.1331203 -0.1200305 0.01671242 0.18982464 0.15824346 0.03749686
0.37046576 0.3143449 -0.23235835 -0.09063376
00000000: 3f91 883c c4d6 9abe b050 083e 8dd2 f5bd
00000010: 7ce8 883c 6461 423e 930a 223e 4f96 193d
00000020: b0ad bd3e d1f1 a03e 59ef 6dbe 319e b9bd

fc3.weight f4 [1, 12]
-0.052550856 -0.028783305 0.022522185 0.0057282327 0.025362458 -0.01771057 0.037478328 -0.01235408
0.04525117 -0.011868555 0.008155948 -0.021552706
00000000: 913f 57bd f7ca ebbc 7280 b83c e6b3 bb3b
00000010: eec4 cf3c c215 91bc e082 193d c468 4abc
00000020: 4a59 393d 5474 42bc 86a0 053c 4d8f b0bc
